checkpoint.pth (torch, 440166 bytes, 6 tensors)

1.weight f4 [128, 784]
00000000: 03c3 423c 41ec f03c 2a14 ba3c d1f9 debc
00000010: 3041 72bc 1e10 9abc 5b02 9dba ae7f f33b
00000020: 4190 8b3a 2375 473c 908d 013d d0c8 833c
00000030: 07fe 6e3c fb3d 953a c517 dabc d62f 083d
00000040: eb31 b3b8 d3d0 b3bb e50a 063d 81b2 8dbc
00000050: 6b43 26bc a9fc 15bb 7569 b93c 5192 983b
00000060: f1ea 543c baeb cabc cb0f 1cbc 99ee 22bc
00000070: 4bb0 24bc c111 753b c81e 5e3b 533d dcbc
00000080: 8e6c a5ba 9240 213a 89e4 f83c d1a8 8bbb
00000090: 749f 97bc 61e6 ecbc 3c9b 78ba 1d8b e9bc
000000a0: b24e 2f3c 9e86 b63c 97b0 ea3c 2e84 89bb
000000b0: 370f 053c 449c 803b 76d9 60bc 81fb 62bb
000000c0: 521e 693c 0545 c9bc 03eb d43c 50b8 bd3b
000000d0: 5254 833c ac0a ee3c 48bb ff3c 3519 9dbc
000000e0: 4cc1 98bc e11d aebc 9f1e 9fbc 99d4 133d
000000f0: d715 1ebb a488 e73c 34ac cfbc 5d3a 803c
00000100: f43c 6abc ff7f dc3b 9f6b 2fbb 45f5 eebc
00000110: e610 183c dacc d5bc b361 99bc 5f22 f93c
00000120: 461a e6bb 4c8a aabc 776e 8a3c 2ffa 303c
00000130: f2d5 7f39 fb77 00bd ecf8 62b9 77d4 c73c
00000140: 8552 cf3b d231 103d 3994 6dbc 834f 3e3c
00000150: f546 fb3c 650a 76bb b07b d83c 8b60 8d3b
00000160: e9c8 f03c 34cd c83b 59db 06bd 4c9e ddbc
00000170: b303 b8bb c167 ef3c c858 0fbd 0106 953c
00000180: 0fe9 1abd 6155 ae3c 7985 963c daa6 773b
00000190: 6346 b9bc ff4c 243c 5fce 843c 4bbe 823c
000001a0: f988 903a 6aca 123d 8779 023c cd3a 133c
000001b0: a997 1dbc 7ade a3bc 2671 dcbc ec34 07bd
000001c0: 4b4b 893b 513a 723c 60ef d33c d628 53bc
000001d0: 2bb3 07bc 9d63 3b3c b0b1 be3a f185 563b
000001e0: 6621 cb3b fc9d bd3b bbcf ce3c 5d0e 14bb
000001f0: 34bc 49bb 8a8b c0bc 8ef9 c0bc 1907 5b3c
00000200: aeb8 0ebd dafd 6eba 375f 0a3d ca48 9b3c
00000210: eb82 6c3c 83c5 d93b 9b29 643c 5cab 993c
00000220: 6c08 213d f3ff 86bc c601 0e3c 926f efbb
00000230: a2aa 22bc 1d79 033d 5ef5 41bc 16a0 e4bb
00000240: fcab b03c cded bfbb 5fef 51bc 00ee dabc
00000250: f4ff 9dbc 01de 1a3c 494b 093d 02b7 523c
00000260: 2b48 27bd 832a 27bd daf8 33bd d604 073c
00000270: b745 12bd d0e4 e5bc 39b4 39bd 4b4d 3d3b
00000280: 9e71 bcbc 9e6f f3bc 64aa ac3c 6fc1 8d3c
00000290: 11d6 d53c fcc9 643c 737f 5b38 80c9 58bb
000002a0: 8e0f 96bc 9577 003d ba03 153d a2d4 0a3d
000002b0: b598 9a3c 936c ee3c 16c9 6c3c e998 ab3b
000002c0: d240 e4ba c4d3 b3bc 89f9 9abc 19f6 22bd
000002d0: 0171 99bc 3b7d 5f3c b808 34ba eb7c 7d3c
000002e0: 67f4 82bc 1983 93bc 00a4 cdbc 2fe4 1abd
000002f0: 2a19 22bd 8562 41bc ed01 df3c a0ff ac3c
00000300: 8802 2e3d 3954 753c 037f f5bc f6d3 60bc
00000310: e42e b3bc ec54 663c 2e34 093c 7dfd c23c
00000320: c590 9abc 0a02 87ba cbe0 533c 3642 26bc
00000330: 0e33 c03c 2b05 03bd 80bb f4bc 68fc b8bb
00000340: 454c 86ba 0f65 143c b76c b2bc 1166 0b3c
00000350: a1f1 46bd 1177 ccbc 41ec 3bbd fef9 4ebd
00000360: af70 103c faf0 393c a220 be3c 8bbc 113d
00000370: 028e fb3b f54b 56bc 3e68 133c f154 1e3c
00000380: 79da 1dbc 4bc2 9e3b 4a6d 143d 8fa1 943c
00000390: 6150 143c 3243 793b be8a eebc 4cb1 1cbd
000003a0: 9e17 d6bc 98e3 b4bc 1997 b0bc f4ee 12bc
000003b0: 6dce 02bd 5976 d1bc 6501 80bc 11f4 d23a
000003c0: 0707 dabc 0861 77bc f175 4fbd 6a5f d6bc
000003d0: 9aa0 2b3a 797b 693c 0a56 753b 724c cbbb
000003e0: 3b40 f7bc 6cb7 e9ba f47a d1bb 6d10 a73c
000003f0: 0a41 993b a634 55bb b477 fabb 4f94 80bc
0.011887315 0.02940953 0.022714693 -0.027218731 -0.01478605 -0.018806513 -0.0011978851 0.007430992
0.0010647849 0.012173924 0.031629145 0.016086966 0.014586932 0.001138627 -0.026622662 0.033248745
-8.544683e-05 -0.0054875403 0.032725234 -0.017297031 -0.01014791 -0.0022886193 0.022633294 0.004656114
0.0129954675 -0.024770606 -0.00952525 -0.009944581 -0.010051797 0.0037394615 0.0033892859 -0.02688471
-0.0012620853 0.00061512843 0.030382412 -0.004262068 -0.01850865 -0.028918447 -0.0009483581 -0.028508717
0.010699915 0.022280987 0.028648658 -0.0041966652 0.008121303 0.0039248783 -0.013723722 -0.0034634771
0.01422842 -0.024569044 0.025990969 0.005789794 0.016031418 0.029057823 0.031217232 -0.019177059
-0.018646859 -0.021254482 -0.019423781 0.03609142 -0.0024121904 0.028263398 -0.025350668 0.01565283
-0.014296759 0.0067291255 -0.0026767028 -0.029169688 0.009281373 -0.026098657 -0.018723344 0.030411897
-0.007022175 -0.020817898 0.016898377 0.010801836 0.00024398396 -0.031364422 -0.0002164577 0.024393303
0.0063269758 0.035203762 -0.014500671 0.011615637 0.030673483 -0.0037542817 0.026426166 0.0043144873
0.029392676 0.0061279777 -0.03292403 -0.02705302 -0.0056156754 0.029224278 -0.034996778 0.01819134
-0.03781992 0.021280946 0.018374192 0.003778866 -0.02261657 0.010028123 0.016211687 0.01595988
0.0011027149 0.03583757 0.007963545 0.008986187 -0.009618678 -0.020003546 -0.026909422 -0.033009455
0.004189884 0.0147844115 0.025870979 -0.012888154 -0.008282463 0.011437324 0.0014548805 0.0032733644
0.0061990498 0.0057866555 0.025245538 -0.002259157 -0.0030782344 -0.023504037 -0.023556497 0.013368391
-0.034844093 -0.00091168063 0.03378221 0.018955607 0.01443551 0.0066458597 0.013925935 0.018758468
0.039314672 -0.016479468 0.008667415 -0.0073070014 -0.009928377 0.032097925 -0.011838285 -0.0069770915
0.021566384 -0.0058572055 -0.012813418 -0.026724815 -0.019287087 0.009452344 0.033519063 0.012861015
-0.04084031 -0.040812027 -0.043938495 0.008240899 -0.035711017 -0.028063208 -0.04533789 0.0028885182
-0.023003396 -0.02971631 0.021077342 0.01730415 0.026103051 0.013964172 5.2332365e-05 -0.0033079088
-0.018317964 0.031364042 0.036380507 0.03389419 0.018871645 0.029104507 0.0144522395 0.005236734
-0.0017414337 -0.021951564 -0.018917816 -0.03978548 -0.018730642 0.013640697 -0.0006867754 0.015471677
-0.01598568 -0.018006848 -0.025102615 -0.03781527 -0.03957478 -0.011803274 0.027222598 0.021117985
0.042482883 0.0149736935 -0.02996779 -0.01372241 -0.021872945 0.014058333 0.008374257 0.023802513
-0.01886786 -0.001030029 0.012932013 -0.010147622 0.023461845 -0.03198735 -0.029874563 -0.0056453235
-0.0010246119 0.009057297 -0.021780355 0.008508221 -0.04857028 -0.024959119 -0.045879606 -0.05053138
0.008815928 0.011348957 0.02320892 0.0355802 0.0076768408 -0.013079633 0.008997021 0.009663806
-0.0096346075 0.004844939 0.03623704 0.018143443 0.009052367 0.0038034436 -0.029118892 -0.03825502
-0.026134308 -0.022081181 -0.021556424 -0.008968104 -0.031935144 -0.025569128 -0.015625665 0.0016094466
-0.026614679 -0.015098818 -0.050649587 -0.026168544 0.0006547064 0.01425063 0.0037435316 -0.0062041814
-0.030181995 -0.0017831153 -0.006392831 0.020393575 0.0046769427 -0.0032532602 -0.0076436643 -0.015695719

1.bias f4 [128]
00000000: ada7 cabc 1e6b db3c 1eee 043d 2a30 6dba
00000010: a92d d73b 4179 e3ba c448 243b ae4c 08bd
00000020: d803 63bc 9a3f 413c c96b 5b3b 653a a7b8
00000030: cb0b a4bc ea10 c7bc b233 0dbd 92d9 1dbb
00000040: c116 f3bc 96bd 053d e9f7 34bc 2196 163c
00000050: a7ea d0bc 6943 98bc 59a3 143d 9889 173d
00000060: 6de1 a0ba 2a32 863c 765a bfba 7948 6c3c
00000070: 655c 2abc 227f b93c 29cc 8ebc f80b c5bc
00000080: 9393 cebc 6edc bcba 1357 2bbc c62d 083c
00000090: 5896 c53c f0b7 7f3b 24e7 a53c d248 abbc
000000a0: b8cb a5bb 17cb 56bc 31ee cdbb 9b2c 16bc
000000b0: 456f c0bc 2e80 78bc 2475 3e3c d99c 923c
000000c0: c71a 6abc 795b eebc e4db 063d 89b3 8fbc
000000d0: d603 f13c b1dc 103d 893b 49bc 4c60 873c
000000e0: 678b 05bd 13c0 eebb 0c39 1abd 70f9 d4bb
000000f0: 6ee2 29bb ecff ddbc 1cf5 663c 8c50 963c
00000100: b47a ccbc 349b 7d3c 8efe 9d3c ff46 9bbc
00000110: e216 46bb 99dd 0c3d d639 e3bc 3a5e d5bc
00000120: c48b 1c3d 88ef 33bc 17a3 d13c 0303 40bc
00000130: c8c2 2ebb 13e0 b5bc 1b4d 53bc b987 81bc
00000140: 4ffa 77bc e16b c6bc b12d 05bb a3cd 973c
00000150: bd5a 5f3c 420a f5bc 50c6 87bb 98e2 98bc
00000160: eb9f ce3c a08f a33b 7d9d 0ebd cdfa 8f3b
00000170: 2d5b 44bc 1e0d adbc 6500 42bb 90e5 093d
00000180: 9156 173c 8b1d 7b3c a620 02bd 909f 45bc
00000190: 375e 2f3c c1c8 683b f830 343c 1c09 46bc
000001a0: 649e c1bc e28a 293c 02d2 f53b ee85 973c
000001b0: 2ba9 98bc 1f0d 1d3c 5cd8 0fbd c0a0 913c
000001c0: fe8c b3bc a838 fabc 4b9b 99bb 70e6 e8bc
000001d0: 95e1 4a3c 6627 e53c bb88 2d3c a5bf 08bd
000001e0: f097 253c 363a 89bc 3668 883c 2e77 5d3c
000001f0: 492c cb3c d484 5639 c3b8 b83c 4aa9 92bc
-0.024738157 0.026784476 0.03245365 -0.00090480095 0.0065667224 -0.0017354862 0.0025067786 -0.033276252
-0.013855897 0.011794949 0.0033480993 -7.9740574e-05 -0.020025155 -0.024300057 -0.03447313 -0.002408598
-0.029673936 0.032651506 -0.0110454345 0.009191067 -0.025502516 -0.018586831 0.036288593 0.036996454
-0.0012274213 0.016381342 -0.0014599103 0.014421576 -0.010398005 0.02264363 -0.017431336 -0.024053559
-0.025216853 -0.0014408955 -0.010457772 0.0083116945 0.024119541 0.0039019547 0.020251818 -0.020908747
-0.0050596856 -0.013109944 -0.006284498 -0.009165908 -0.023490557 -0.015167279 0.011624608 0.017897056
-0.014288611 -0.029096352 0.032924548 -0.017541664 0.029420774 0.035366718 -0.012282261 0.01652541
-0.032603648 -0.0072860806 -0.03765206 -0.006499462 -0.0025922316 -0.027099572 0.014096525 0.018348955
-0.024960853 0.015478898 0.01928642 -0.018954752 -0.0030226042 0.03439102 -0.02773754 -0.026045907
0.03821923 -0.010982402 0.025590463 -0.011719468 -0.0026666392 -0.022201573 -0.012896801 -0.015811788
-0.015135362 -0.024221363 -0.0020321424 0.018530672 0.013632474 -0.029912118 -0.0041435137 -0.018662736
0.02522274 0.0049914867 -0.03481816 0.0043939115 -0.011984629 -0.021124419 -0.0029602286 0.033666193
0.009236948 0.015326868 -0.031769417 -0.012061968 0.010703615 0.003552005 0.010998003 -0.012087133
-0.023635097 0.010348054 0.0075018415 0.01849648 -0.018635353 0.009585648 -0.035118446 0.017776847
-0.021917816 -0.030544594 -0.004687702 -0.028430194 0.0123828845 0.027972888 0.010591681 -0.03338589
0.0101070255 -0.01675139 0.016651254 0.013517184 0.02480139 0.00020458113 0.022549039 -0.017902989

3.weight f4 [64, 128]
00000000: 913e 80bd a25a fbbb cba3 f63d ab32 dc3d
00000010: e361 f8bc 786e 1b3b 1a76 06be aaaf 723d
00000020: 2e56 92bc 628b 443e 0df8 e4bd cac8 a0bd
00000030: 58e8 223d dd7e 4a3d 9189 0abe 0022 bc3c
00000040: 7ae1 d7bd 948d 9c3d 5270 293d 3cf4 3a3d
00000050: 5470 d5bb 5e8c 103d ecbf e6bc aff3 aa3b
00000060: 3854 373d b88e 3bbd de8e 07be 5de3 adbd
00000070: 7720 00bd 76ea 7a3c f5f9 193d 22ce c33d
00000080: 6695 b3bc f6cd b53c 4c47 55bd d9b5 26be
00000090: bd3f 493d d595 9cbd a784 ff3c d4ae f5bd
000000a0: 6d76 a33d b415 e33c 153b e63c 00c7 163d
000000b0: 0f47 d93d ed75 113d 633f 7a3c e27a 8f3c
000000c0: 8df4 193d 0bf8 133b 7c35 103e c446 c63d
000000d0: 24ce ea3c 1588 aa3c 3b44 7dbd 6fd5 aebd
000000e0: 08df 823c 5c0b 8e3d 926d c93d c93f 88bd
000000f0: 874c e7bd f799 e239 d5e4 1c3a 406f 003d
00000100: cd33 5c3d 7752 ba3c 0250 7a3d 4f8c afbc
00000110: 9d01 f0bd 147d 86bc 02f5 87bd d29a 46bd
00000120: b630 b63d e6ee 7c3d 89a4 f33c e2cb 8abd
00000130: 6f15 6abc 7a57 923d d322 45bd 2e0f 853d
00000140: 5cb5 2cbc 7c2a 263d 9d86 59bd f4ed 86bd
00000150: ac16 30bd 30bf ff3d c757 50bd 790c 6abd
00000160: d66e d6bb eeb7 9e3c 4b94 10bd c9ae 96bc
00000170: 2c16 c83d 54e6 18bd 9e03 7fbc 15c8 a8bd
00000180: a590 823b 9882 813d c61a eabd b80c fb3d
00000190: 6ad9 943d 9a31 52bd 189f d4bd 497f 71bd
000001a0: 86b6 efbc 6d8e bbbd b651 6bbc dee7 f43c
000001b0: b7be 40bd a0d6 833d 69e2 db3c 98da cfbc
000001c0: b0a8 b43d 4a42 0dbe a302 8d3d 4916 2dbd
000001d0: be64 e43b 3796 04be 4e68 02bd 013b 063e
000001e0: b778 b73d 484f 3c3d 2e2b 9bbd 82c4 bd3c
000001f0: d34b 383c b9c5 e93d c087 32bd 396e f53d
00000200: b5fa a23d def7 8f3d 53a3 483d 0e14 70bd
00000210: 28a3 b2bd 71ec 103c 1da4 4dbc 3a42 013e
00000220: e508 153e 7dcd 10be 5800 203d a3e9 933d
00000230: eb0a f23d 870d 543d 4b31 a93d 8649 e1bd
00000240: 9b9a 173e 4e01 07be 0621 6cbb 5e79 5bbc
00000250: ed21 e03d fd75 83bd c92a c33d a700 2d3c
00000260: 3f29 ee3c b091 6e3d f255 5c3c f514 983d
00000270: 2509 e53c ab5e 11bd 6042 9cbd c847 1c3d
00000280: ec96 a1bd 3ab3 073e 15a8 103b 8047 503d
00000290: a9eb 883d 26f9 5d3d ca34 083c d155 82bc
000002a0: 0b93 6cbd 4315 cc3b 54c2 04be 49b2 2fbd
000002b0: f9ba ddbc ca8a 8abd 5ab6 273d 2062 3a3c
000002c0: 871d 463d 57d1 0b3d 5939 16be 905d 9d3d
000002d0: 2956 1cbd e7c6 d13d 3162 7dbd ede0 4fbd
000002e0: 8370 f43b ae3f 493d bfde 343c f354 9fbc
000002f0: 701b 5c3d 8286 073e b477 343d 9c48 203d
00000300: 8059 c6bd c352 04bd 1bff 0bbd d6ab 75ba
00000310: ef79 35bd 8aab 9bbd af41 0d3e 6b6e 0e3d
00000320: ddb0 a43d fb6f e83c 0b41 28bc 3233 493d
00000330: 00e2 7dbd 7c7a 923c 7cd3 593d 6f05 213e
00000340: 7476 30bd be76 b0bd b5e2 53bd b676 82bd
00000350: 987c 9c3d 3d05 cc3d 3601 01bd 66d3 90bd
00000360: e78b 8e3c af8a b1bc 6b97 45bd 9e73 88bc
00000370: f619 0cbc fe6f 5fbd 5d58 1a3d dd05 cd3c
00000380: 1d8d 093c 5e7e 223d f530 253e 2e42 c33d
00000390: 40b6 e2bc ceb1 04bd 5a7f 053b bd9b 433e
000003a0: 8562 afbd 7b6e fc39 ae4c 023d 32c3 8ebc
000003b0: 9caa c73c d239 a5bd 57b6 2cbd 44c4 e93d
000003c0: ab86 acbd dabb c53d 7d39 25bc 7e50 d4bc
000003d0: 8037 debd 53f3 0e3e c0ba 653d accb 3fbe
000003e0: 52ac 693c 7c63 c03c d6f0 60bd a3c8 f73d
000003f0: 5201 c5bd efaa 763d b6b0 a9bd 063b 4f3d
-0.062619336 -0.0076707164 0.1204296 0.10751852 -0.030320114 0.0023716968 -0.1313099 0.059249558
-0.01786336 0.19193795 -0.111801244 -0.078507975 0.03977236 0.049437393 -0.1352904 0.022965431
-0.10541053 0.076441914 0.041366883 0.045643076 -0.0065136347 0.035290115 -0.028167687 0.0052170376
0.04475805 -0.045790404 -0.13238093 -0.08490632 -0.03128096 0.015314689 0.037591893 0.09560801
-0.021921825 0.022192936 -0.052069947 -0.16280307 0.04913305 -0.07645766 0.031191183 -0.119962364
0.07981572 0.02772031 0.028104344 0.036810875 0.106092565 0.035512853 0.015273902 0.01751465
0.037586737 0.0022578265 0.14082903 0.09681466 0.028662749 0.020816842 -0.061832648 -0.08536803
0.01597549 0.069357604 0.09835352 -0.06652791 -0.11293893 0.00043220792 0.00059850264 0.031356096
0.05376034 0.0227444 0.061111458 -0.021429209 -0.11719058 -0.016417064 -0.066385284 -0.048487492
0.088960096 0.06175127 0.029741542 -0.06777169 -0.014287337 0.07145591 -0.048128914 0.06497036
-0.010541286 0.04056786 -0.053106893 -0.06588355 -0.04299037 0.12487638 -0.05086496 -0.0571408
-0.0065439744 0.019374814 -0.035297673 -0.018393891 0.09769854 -0.037329033 -0.015564827 -0.082412876
0.003984528 0.06323737 -0.11430888 0.12258285 0.07268031 -0.051316835 -0.10381907 -0.05895928
-0.029261839 -0.09158025 -0.014362743 0.02989572 -0.04705688 0.06437421 0.02684136 -0.025372788
0.08821237 -0.13794819 0.068852685 -0.04225758 0.006970017 -0.12947927 -0.031837754 0.13108446
0.089585714 0.045974046 -0.07576595 0.023164991 0.011248547 0.11414666 -0.043586493 0.11983914
0.07957975 0.07029699 0.048983883 -0.058612876 -0.08722526 0.0088454345 -0.012551335 0.1262292
0.14554174 -0.14140888 0.039062828 0.07222297 0.11818489 0.051770713 0.08261355 -0.110003516
0.14805071 -0.13184091 -0.0036030426 -0.013395635 0.10943971 -0.06418989 0.09529645 0.010559238
0.029072402 0.058244407 0.013448225 0.07425872 0.027958462 -0.035490673 -0.076298475 0.038154393
-0.07890114 0.13251963 0.002207284 0.050849438 0.066855736 0.054192685 0.008313367 -0.015910061
-0.05775742 0.0062281205 -0.12964755 -0.042894635 -0.027066695 -0.06764753 0.04094539 0.011375934
0.048368003 0.03413519 -0.14670314 0.07683861 -0.038168106 0.10243016 -0.06186122 -0.050751615
0.0074597015 0.049132995 0.011039435 -0.019449687 0.053737104 0.13234904 0.04405947 0.039131746
-0.096850395 -0.03230549 -0.034178834 -0.0009371614 -0.044305738 -0.07601078 0.13794588 0.03477327
0.080415465 0.028373709 -0.010269414 0.04912109 -0.06198311 0.01788067 0.053180203 0.15724729
-0.043081716 -0.08616398 -0.051729877 -0.063702986 0.07640952 0.099619366 -0.031495295 -0.07071571
0.017400695 -0.021672575 -0.048240107 -0.016656693 -0.008551111 -0.054550163 0.037681926 0.02502721
0.00839546 0.039671294 0.16131957 0.09534107 -0.027674794 -0.03239613 0.0020370097 0.19102378
-0.08563713 0.000481475 0.03181141 -0.01742706 0.024373345 -0.08067669 -0.04216608 0.11414388
-0.084241234 0.096549705 -0.010084507 -0.025917288 -0.108504295 0.13960008 0.0560863 -0.18730038
0.014262276 0.023484938 -0.05491718 0.12098815 -0.096193925 0.06022161 -0.08285658 0.0505934

3.bias f4 [64]
00000000: fe5f a83a 1b52 063d 6f6b 913d 69df 19bd
00000010: 61c2 9a3d fe14 7bbd 4e78 4a3d 7050 f2ba
00000020: 8f51 01bd d548 3cbc 0f68 59bd 887f b13d
00000030: c57f 91bd 5a15 72bc f6a2 13bd 7c60 ad3d
00000040: b478 d23c 0f26 8cbd 96c7 f63c 00ff 1cbd
00000050: ea70 66bd 5b7e 653d b839 673d 13ed 7b3d
00000060: ea15 8dbc dd55 90bd 5688 873d ffd8 8fbd
00000070: fad7 213d f149 9c3d 4510 103c 85d9 213d
00000080: 0aac 9cbd 3df9 6b3d a5f4 f0bc abea f0bc
00000090: c0a2 a93c eff8 6cbc f527 81bd 0d25 003d
000000a0: 9ff9 0a3d a6e9 bdbc 4fd4 b5bd e1d9 9a3d
000000b0: 362d 94bd b906 b13d 9ebb 9f3c 0d2c a7bd
000000c0: 6b34 9c3b e45a 2dbd f2dd 18bd 7182 5a3d
000000d0: a42c 9a3d 1841 893d deba c83d 404a 3c3d
000000e0: 6f76 de3c 9a86 4abd 7f49 f43c 549d 50bd
000000f0: bfac 413d 5461 d23b 356d b33b b819 cf3d
0.0012845991 0.032793146 0.071005695 -0.037566576 0.07556606 -0.061299317 0.049431138 -0.0018487107
-0.03157192 -0.011491974 -0.053077754 0.08666903 -0.07104448 -0.014775598 -0.036044084 0.084656686
0.025692321 -0.068431966 0.030124467 -0.038329124 -0.056260027 0.056028705 0.05645153 0.06150539
-0.017222364 -0.07047627 0.06617801 -0.070238106 0.039512612 0.07631291 0.008792941 0.039514083
-0.07650001 0.05761074 -0.02941353 -0.029408773 0.020707488 -0.014463647 -0.06306449 0.031285334
0.033929463 -0.023182701 -0.08878385 0.07561088 -0.07235186 0.0864386 0.019498643 -0.08162699
0.004766991 -0.04232301 -0.03732104 0.053347055 0.07528046 0.06701869 0.09801267 0.045969248
0.027156083 -0.049444772 0.029820202 -0.05093129 0.047283884 0.006420294 0.005475665 0.10112327

5.weight f4 [10, 64]
00000000: 1f60 233e 38c8 87be 1573 63be cbf9 87bc
00000010: 0d90 2c3d b82a 1fbe 1917 20bd 0af9 323d
00000020: f27c 88be 7a9e 95bc c68e 94bd d07e 99be
00000030: 72a8 e03c 6560 a03e 70a0 7ebc 850a 91be
00000040: 7a6b f0bd 2057 fcbd c758 28be 4083 3bbd
00000050: 4c07 823e 0cc5 b23d b9f4 503e 6582 c23d
00000060: 0a3d ac3e 6481 383e 8f81 8b3e cd96 1abd
00000070: fcdb 873d 9164 eb3d 7d1b e8bd 3646 78be
00000080: 0731 ca3c 627a 24be 727a 073d 5b3c 4fbe
00000090: 5c0a cbbd 393c 63be 2fb6 9c3c 90ba bf3b
000000a0: 2e6a bdbd a13b 34be 560f 0cbe 7976 273e
000000b0: ed7f f03c 49a5 9cbd 0c33 2b3e c126 9d39
000000c0: cafa 92be fbd7 6c3e f633 6abe 7f21 703d
000000d0: 7a48 24be 0fa5 7c3e 0c4e 983d e5cc ccba
000000e0: 43ad a93d 69e3 6abc 26fd fcbd 1676 703d
000000f0: ff21 3fbe 6b2e babd 488d 263d ae24 7bbe
00000100: 95c6 04be 9907 7c3e e321 183e 2d72 c23d
00000110: 60ff a8bc 1a1c 653e a0b7 fd3d cf3f 2f3e
00000120: e855 a4be 96a4 e139 9a0b fb3d 6338 94bd
00000130: 032f ae3c 6fac 88be 1cce 6f3e 4ecb 4a3d
00000140: 6ff8 51be d2f8 823e 7835 22bd 469b cfbd
00000150: 4d0b a5bd 8e21 e8bb 2d97 263d cd85 893d
00000160: 2d93 3ebe 7996 553d 97f2 75be 5532 073e
00000170: 87a8 aabd e36e 31be 0887 753c 2e8e 163d
00000180: d90b e4bd 8e84 51bd 5982 243e c20b b63d
00000190: 6784 90bd 6b27 313e 65c6 96be 093c 1cbe
000001a0: 926d 1bbe 132d b03d 410a 55bc 8ae5 27bd
000001b0: b66d fbbc 44e7 693e b520 443d 27fb 53be
000001c0: 985b 943e 21d6 4cbe 1361 283e 8eb1 593e
000001d0: 7c4b 953d 74b9 dabd 2963 c4bd a87a 84bd
000001e0: ed75 cbbe 7c61 893d 778a 133e de89 9dbd
000001f0: 9d7b dabd bd0d 7bbd 6a2c e6bd 6dab 21bd
00000200: e072 8abe 2555 0f3e 013d 3f3e 01a9 9ebd
00000210: 05cd 05be 2c2e a93d 9a4d c33d 05e3 ccbd
00000220: 5717 ef3d a66a ea3d 4b68 bcbd 9366 3ebc
00000230: d8be 3f3e 159a 3cbe ec22 8abe 638e 02be
00000240: cfef 823e c874 813d a524 87be c406 1ebd
00000250: c08d 04bc ac13 65bc 1782 22bd 9598 993d
00000260: 79f3 933e 091f 08bd 6a46 87bd 6d80 083e
00000270: 68db 913e 8345 e93d 4502 1a3e 5732 10be
00000280: 7d2c 133c 8470 b4bc 993d 5d3e 3824 80bc
00000290: 8a6b 11bc 054e 3b3e b49e 803e b232 a9bd
000002a0: f7b8 9abb 0d3e b0bb 5881 ea3d efd3 ab3e
000002b0: 8472 5fbd d1aa ffbd 45c3 36be 0d62 9d3e
000002c0: c8b0 173e 742e 863d 7789 42be a9dc 403e
000002d0: 13f4 5c3e c3c0 2d3e 902a 27be fe37 543d
000002e0: e279 e9bd 888e fe3b 39f1 3cbe d705 cdbd
000002f0: 5d41 0bbc 34a0 92bd 4b89 163e 7dd1 c5be
00000300: c558 84be 873f 933e 7ff1 3ebe 29fb 33be
00000310: 19e1 483d ccc1 853e 8896 c23d c81f 9dbd
00000320: f771 8a3e f78c 88bc 7f32 91bd 5354 59be
00000330: 7bc2 6f3e de08 a43d 5fc7 193c 8079 8abe
00000340: 90bd 8a3d 5832 253b e208 3dbe cfd5 4b3d
00000350: 3927 ef3d b1a5 213c 7e7b 973e 7139 cb3d
00000360: 2ab8 07be bedd 0fbe 548f 6bbe 87f4 213d
00000370: 1f65 23be 8f1b ae3e aecf 433e 3fb4 b43d
00000380: 428b f7bd f8ac b3bd 1993 24bc 4945 36be
00000390: 4827 a13d b875 2a3e 58b0 8fbd f431 74bc
000003a0: 5dca 22bd 192f 82bd 59ab 9abc 1f36 cb3c
000003b0: 4ce9 eebd bd9f 1bbe dbfd 423b 42f8 c6bc
000003c0: eeed f5bc 4d2e 6fbe 9b85 513a 7245 88be
000003d0: 55d2 1f3e 8609 cd3d 5952 683e cfb6 afbd
000003e0: f6bc 703e a06d e63d 08fd c13e 2ee0 9ebd
000003f0: 4d1f c63d e16e be3d 9c11 26be 2c2b 453d
0.15954636 -0.26519942 -0.22211869 -0.016598603 0.042129565 -0.1554364 -0.039084528 0.043694533
-0.26657826 -0.018264044 -0.07253794 -0.29979563 0.027424071 0.31323543 -0.015541181 -0.28328338
-0.117392495 -0.12321305 -0.16440116 -0.045779467 0.25396192 0.0872899 0.20405854 0.09497527
0.3364032 0.18018109 0.27247283 -0.03774147 0.066337556 0.11493791 -0.11333368 -0.24245533
0.024681581 -0.1606231 0.033075757 -0.20237868 -0.09914085 -0.22190942 0.01912984 0.0058510974
-0.09248768 -0.17600872 -0.13677725 0.16353787 0.029357875 -0.07648713 0.16718692 0.00029974247
-0.28706962 0.23129265 -0.22871384 0.058625694 -0.16043273 0.2467234 0.07436761 -0.0015625028
0.08285 -0.014336445 -0.12352972 0.058706366 -0.18665312 -0.09090885 0.04066208 -0.24525711
-0.12966378 0.24612273 0.14856677 0.094944336 -0.020629585 0.22374001 0.12388539 0.17114185
-0.3209679 0.0004303797 0.12258072 -0.072373174 0.021262651 -0.26694056 0.23418468 0.049510293
-0.20504926 0.2558046 -0.039601773 -0.10137038 -0.08058796 -0.007084078 0.040671516 0.067149736
-0.1861083 0.052145455 -0.24018322 0.13202794 -0.08332925 -0.17327456 0.014985807 0.036756687
-0.11135072 -0.051151805 0.16065349 0.088889614 -0.07056504 0.17300193 -0.29448238 -0.15257277
-0.15178517 0.08602347 -0.013002933 -0.04099039 -0.030691963 0.22842127 0.047882754 -0.20701276
0.2897613 -0.20003559 0.16443281 0.21259138 0.07289788 -0.106799036 -0.09589226 -0.06468707
-0.39738408 0.06708047 0.14408289 -0.07692312 -0.106681086 -0.0612924 -0.1123894 -0.039470125
-0.27040768 0.13997324 0.18675615 -0.07747079 -0.1306649 0.0826076 0.09536286 -0.10004238
0.116743736 0.11446123 -0.0919958 -0.011621135 0.18725145 -0.18418153 -0.26979768 -0.12749629
0.25573584 0.063211024 -0.26395145 -0.03858067 -0.008090436 -0.013981741 -0.039674845 0.07499806
0.28896692 -0.033232722 -0.06605227 0.1333024 0.28487706 0.113902114 0.15039928 -0.14081703
0.008982775 -0.022026308 0.21605529 -0.01564227 -0.008875737 0.18291481 0.2512108 -0.082616225
-0.0047217566 -0.005378491 0.114504516 0.3356013 -0.05455257 -0.124837525 -0.17847927 0.3073887
0.1481353 0.06551829 -0.18997751 0.18834175 0.21577482 0.16968064 -0.1632483 0.05181121
-0.114002004 0.007768456 -0.18451394 -0.100108795 -0.008499471 -0.071594626 0.1470081 -0.3863639
-0.25848976 0.28759405 -0.18646811 -0.17576279 0.049042795 0.26124418 0.09501368 -0.076720774
0.27040073 -0.01666878 -0.070897095 -0.21223573 0.23414032 0.08009504 0.009385913 -0.27045822
0.067744374 0.002520701 -0.1846042 0.04976445 0.11677403 0.009866164 0.29586405 0.099230655
-0.13253847 -0.14049432 -0.23003894 0.03953984 -0.15956543 0.340054 0.19122192 0.08823442
-0.12087108 -0.087732255 -0.010044836 -0.17799868 0.078688204 0.16646469 -0.07016057 -0.014904488
-0.03974377 -0.063566394 -0.018880533 0.02480608 -0.116655916 -0.15197654 0.002975336 -0.0242883
-0.03002068 -0.23357506 0.0007992626 -0.26615483 0.15607579 0.10011582 0.22687663 -0.0857979
0.23509583 0.11251378 0.3788836 -0.07757603 0.09673939 0.09298492 -0.16217655 0.048136875

5.bias f4 [10]
00000000: 6218 c2bd 6cf8 243d 805b c9bd e799 ba3d
00000010: 2f01 61bd 733a 583a 2d7e 953d 98e7 a13d
00000020: e3b4 553d bf28 83bd
-0.09477307 0.040275976 -0.09831905 0.09111386 -0.05493277 0.00082484557 0.07299457 0.07905501
0.05217446 -0.06404256
